AI3603_hw2_2025/runs/LunarLander-v2__dqn__42__1763084443/dqn.pth (torch, 48800 bytes, 6 tensors)

network.0.weight f4 [120, 8]
00000000: 7157 b33e 8ee4 a03d 966c 3f3e 386d 1340
00000010: f446 3abf 80eb 943e 284a 04be bedf 283e
00000020: bc07 febe c86b 20bc 8103 993f d722 a5be
00000030: eacd eebe 6dd2 553c 789f a8bc 4cd9 48be
00000040: 399d f63e 22da 54bb f901 c23e 8e26 f43d
00000050: bce6 02bd 5e94 473e 3e70 8dbb 666f 1d3f
00000060: 8591 f93d 8aae 12be 805b 893e 099c 86be
00000070: 1b99 fc3e 564f e13d 5206 133f 519b 993d
00000080: eca5 46bf f2b9 bb3e 3985 4d3e 0525 393e
00000090: 21df 70bf 87ad 703e e34d 403e d76c 8cbe
000000a0: 0cf6 c53e 884e 89be e5b6 303e b39a 16bd
000000b0: 909c 1a3f 4e3d 8abd 1a8b de3d f1cf 9a3d
000000c0: c282 833c 0385 12bd a1f6 af3b ac5d 2e3d
000000d0: 9abf 203f 525e b83e cb47 903e c789 313e
000000e0: c213 203f 78c5 febe 2322 113f 2f40 babe
000000f0: 1abe a1be 5858 8cbe fd58 0c3e bb61 4e3e
00000100: 2fed ebbe cbf5 00bf 04aa 9c3e 6df4 b4be
00000110: 9763 34be a618 48be a1c6 193f 1283 b13e
00000120: 7509 3a3e 488e 21be 8945 ee3c bb24 debe
00000130: 6b62 d23e 3cba 6b3e f22d 783e e06b b43e
00000140: 2ab9 9d3e 1a44 c9be 398f 12be e4e1 24bf
00000150: 5e96 8e3d 2798 613c 7962 ee3c dce1 32bf
00000160: a7e1 523e 826b 38bf 6a63 5ebe 563c 913e
00000170: a986 253f f0f5 243f 0e3e e4be 0da9 b9be
00000180: e59a 493f 0602 50be 5ff4 173e 605b 1bbf
00000190: babf 5dbe d89a 4e3e f3da 08bb 79f0 23bf
000001a0: c487 b13d 27e6 fdbe 3e87 bfbe 0e23 23bf
000001b0: 57e3 c33e 81d6 a9be 36a3 983e 6af2 ff3d
000001c0: 4743 d53d 06f8 abbd b23a 593e d1eb 3cbf
000001d0: 29fe 94bd 0ec3 0abf 8d0d 03bd 841f 0ebd
000001e0: bd0e 2a3e b89e 5cbf 7fc6 803e 87b5 86bf
000001f0: 188e 123d 38e6 3cbe f6cf 87bf 3e70 08be
00000200: d6ae 6e3e 992e e23d eff8 dcbd 1c9d a23e
00000210: 69be 6cbf aaf4 0dbf 7e25 893d 30af 23bf
00000220: 5657 8bbe 2d58 49bd f750 ee3e 05d5 2ebf
00000230: 540a 433d 9583 11bf b704 d73e 0b62 a7bd
00000240: 9ab2 c7bf 93d4 6f3e e07d 853f 2a8d 3fbe
00000250: 6234 54be 00f8 f0bd 7ed1 e13d a7d1 503d
00000260: 5e8e 93be 98ac a1be 74d9 383f f427 20bf
00000270: 709b 013f b2aa 873e a527 87bd 62cb bfbe
00000280: 11fb 013f a995 263f d52a 64bc 0b24 77bf
00000290: bcbd 0e3f 041f f63d c81d 0cbf 1d86 ee3e
000002a0: bb96 0abf eef8 52be f7cd 2cbf 4ca8 f6be
000002b0: 0c3e 193f c516 05be b76f e5be 93b2 e4be
000002c0: 2df8 eebd 0c12 0d3f b525 f73d c96b 23bf
000002d0: a01d 853e d6c4 0e3f e0e1 27be 169a 093e
000002e0: cb8e 853e a567 263f b1c2 e23d a0d5 3cbe
000002f0: 3e4d d6be 597d 6ebd 74b8 673e 49de 6d3e
00000300: 4f80 1e3f fe5e d7be 6847 973e 6f58 73be
00000310: 53a8 2f3e 3bfe 8a3c 8e23 aa3e 7ad4 a13e
00000320: 74ef 38be 8233 b03d 4d0b b2bd ce95 07be
00000330: 62d4 a33e b234 7abe 963f d8bc 0c04 11bf
00000340: dc2c fabd 1399 dcbe 9205 2b3e 7db4 c6be
00000350: 7c2f 5abe e2b3 fdbd 409a 3f3d 0e56 2e3f
00000360: ad1f 2e3f 64cb f3bd 7dfe 5abe 291d ccbc
00000370: f981 3cbe bbca 173f cc63 313d 33b4 5bbf
00000380: ec5c 88be 4590 013e 73ae cb3b 81ff b7be
00000390: 432d 933d 881c e9be 59cc f3be 56b6 073f
000003a0: a9a1 0d3f 3a23 4b3e 8363 b6be 1600 0a3f
000003b0: 301c a7bf 235d 11bf 9fcc 6ebe 15f3 14bf
000003c0: 9410 0c3e 34a0 783d 5727 bcbe 4e2b 37bf
000003d0: 33b5 a7bd 0e17 72bd 9f9c 59be fe25 c53e
000003e0: f4e5 dabd f7b0 513f 9393 bbbe bb48 bfbe
000003f0: 1687 e23e 9d22 a4be 7b2e 17be 10fd ecbe
0.3502765 0.07856093 0.18693766 2.3035412 -0.72764516 0.29085922 -0.12918913 0.16491601
-0.49615276 -0.009791322 1.1954194 -0.32253143 -0.46641475 0.013050658 -0.020583853 -0.19614142
0.48166826 -0.003247865 0.3789213 0.11921416 -0.031958327 0.19490191 -0.004316359 0.61498106
0.12185959 -0.14324394 0.2682762 -0.2629092 0.4933556 0.1100146 0.5743152 0.075003274
-0.77596927 0.36665303 0.20070352 0.18080528 -0.9409047 0.23503695 0.18779711 -0.27426788
0.3866428 -0.26817727 0.17257269 -0.036768626 0.60395145 -0.06749974 0.10866375 0.07559193
0.016053561 -0.03577138 0.0053699766 0.0425698 0.6279236 0.3600946 0.28179774 0.17337714
0.6253015 -0.49760032 0.56692713 -0.36377093 -0.31590348 -0.2741115 0.13705821 0.20154469
-0.46079394 -0.5037505 0.30598462 -0.35342732 -0.17616116 -0.19540653 0.6006871 0.3467031
0.1816767 -0.15776932 0.029085891 -0.43387398 0.41090712 0.23020262 0.24236277 0.35238552
0.3080533 -0.3930977 -0.14312448 -0.6440718 0.06962274 0.013769186 0.02909969 -0.69875884
0.20593892 -0.72039044 -0.21717611 0.28366345 0.646586 0.6443777 -0.44578594 -0.36261788
0.78751975 -0.20313272 0.14839314 -0.606863 -0.21655169 0.20176256 -0.0020882457 -0.6403881
0.08668473 -0.49589655 -0.3740787 -0.63725364 0.38259384 -0.33171466 0.2981202 0.12497409
0.10413223 -0.08396916 0.21213797 -0.7379733 -0.0727504 -0.5420388 -0.031995345 -0.034698024
0.16607185 -0.86179686 0.2515144 -1.0524148 0.035780042 -0.18447196 -1.061034 -0.13324067
0.23308882 0.11044044 -0.10789668 0.3176049 -0.9247804 -0.5545145 0.06696604 -0.6393919
-0.2721507 -0.049156357 0.46546146 -0.6829379 0.04761727 -0.56841403 0.41995785 -0.08172997
-1.560138 0.23420934 1.0429039 -0.18706194 -0.20723107 -0.11766052 0.110262856 0.05098119
-0.28819555 -0.3157699 0.7220681 -0.62560964 0.50627804 0.26497418 -0.065993585 -0.37459856
0.5077372 0.65072113 -0.013926228 -0.9653937 0.5575826 0.120176345 -0.5473294 0.46586695
-0.54136246 -0.20602772 -0.6750178 -0.48175275 0.598603 -0.12996967 -0.44811794 -0.4466749
-0.116684295 0.5510566 0.12067739 -0.6383634 0.25999165 0.557691 -0.16394758 0.13437685
0.26085505 0.650019 0.11072291 -0.18440866 -0.41855806 -0.05822501 0.22628957 0.23229326
0.61914533 -0.4206466 0.29546666 -0.23764203 0.17154054 0.01696693 0.3323025 0.3160742
-0.18060094 0.08603574 -0.08693562 -0.1324074 0.31997973 -0.24434164 -0.026397508 -0.566468
-0.122155875 -0.43085536 0.16701344 -0.38809577 -0.21307176 -0.123878255 0.046777964 0.6810006
0.68017083 -0.11904028 -0.21386142 -0.024916248 -0.18408956 0.5929372 0.043308064 -0.8582184
-0.26633394 0.1265269 0.0062158643 -0.35937122 0.07186367 -0.4552958 -0.47616842 0.530126
0.553248 0.19837657 -0.35622796 0.5390638 -1.3055477 -0.5678274 -0.23320244 -0.58183414
0.13678199 0.060699657 -0.36748764 -0.7155045 -0.08188858 -0.059104018 -0.21251152 0.38505548
-0.10688391 0.8191065 -0.36636028 -0.37360176 0.44243687 -0.32057658 -0.14763825 -0.4628682

network.0.bias f4 [120]
00000000: ec64 0f3f ad91 40be b40e 103c 4816 cf3c
00000010: 04e0 06bf fa04 e43e c21c 543d b14b 97be
00000020: 29f6 46be f356 003e 5ece f33e f34f 15bf
00000030: 65fe 7b3e c523 67be b738 183f edbf 033f
00000040: 1ef8 4cbe 0ea5 0d3f 2ab6 f93d 9da3 e03e
00000050: e3f1 6b3f dafb 22be 9314 6b3f 3f94 6d3f
00000060: 9391 edbe e66f 933e c8f6 63be f2a5 cbbd
00000070: 088b 4a3e 3e27 f3bd 2da2 493d 0713 243f
00000080: 0e88 78be 78fd 08be 600a ad3e 8f8f 7c3e
00000090: ed1e 46be 0b8e d73e 024c cc3e 1c49 6bbf
000000a0: 7004 5c3e ca93 933e 1805 adbe 8266 113f
000000b0: 84c2 44bf d6cb 36be 4f4c 8e3e 2abb 98be
000000c0: 098f 2a3e 8ec1 343d c7bf 9a3e bcbc afbe
000000d0: d6f3 c7bc dbf7 8a3c 98df 953e 86e2 423e
000000e0: e3fb 2fbe b37f 263f 66fc 443e 87d2 c03e
000000f0: 441a 703e ffcc a0bd f6e3 adbe 5071 563d
00000100: 952d 4c3f 9b19 963d 3a5c 3abf 4b47 4bbf
00000110: 37af 113b 1020 21be 5eef 4f3f 9b0d 10be
00000120: 4739 c5bb 7f02 54be 43bd 643e 1574 763f
00000130: 5989 5c3f 9729 41be 0ef6 a43e 775c fb3e
00000140: f43d 2b3e 3a0a 1a3f 4564 0ebf d9b3 0dbe
00000150: d1b7 f13d 8ad3 f93d 8985 833e d218 883e
00000160: c056 cf3b 0b0c 383e c97c 273e 1a35 ff3e
00000170: a35c 3dbd a48e 5cbe 5aa3 8a3f 0d13 bfbe
00000180: 9989 443e 1f59 6cbd 61c4 c13e c8db 24be
00000190: 35be 743e f381 71be 9e20 803e 5552 883f
000001a0: 6183 d33e 8bc6 403e a093 87be 8783 293f
000001b0: f347 323e 3cfc e83e e583 953e 07a4 4d3f
000001c0: d2d8 a6bd a9b0 a53e 22db 24bf 5083 873e
000001d0: 2a0f b13d b0b8 81be ed42 8cbe 9b11 74be
0.5601337 -0.18805571 0.008792568 0.02527918 -0.5268557 0.44535047 0.051785238 -0.29549935
-0.1942984 0.12533168 0.47618383 -0.5832512 0.24608763 -0.22572239 0.5946154 0.5146473
-0.20016524 0.5532998 0.12192948 0.43874827 0.92165965 -0.15916386 0.9182827 0.9280433
-0.46400127 0.2879631 -0.22262108 -0.09943761 0.19779599 -0.11872719 0.04922693 0.64091533
-0.2427065 -0.1337794 0.33796978 0.24664138 -0.19347735 0.42100558 0.3990174 -0.9190843
0.21486068 0.28823692 -0.3379295 0.5679704 -0.7685931 -0.17851195 0.27792594 -0.29830295
0.16656126 0.0441299 0.3022444 -0.3432368 -0.024408262 0.01696389 0.2927215 0.19031724
-0.17185931 0.65038604 0.19236907 0.3766062 0.2344752 -0.078516 -0.33962983 0.052354157
0.7975705 0.073291026 -0.72796977 -0.7940566 0.002222968 -0.15734887 0.8122462 -0.1406769
-0.006018791 -0.20704077 0.22337823 0.9627088 0.86147076 -0.18863522 0.32218975 0.49093983
0.16722852 0.60171854 -0.5562175 -0.13838138 0.11802638 0.12198551 0.25687817 0.26581436
0.00632748 0.17973344 0.16356196 0.498452 -0.046230923 -0.21538788 1.0831101 -0.37319222
0.19193114 -0.05770218 0.37845138 -0.16099465 0.23900683 -0.23584728 0.25024885 1.0650126
0.41311172 0.18825738 -0.26479816 0.6621632 0.17410259 0.4550494 0.2920219 0.8032841
-0.08146824 0.32361344 -0.6439687 0.2646737 0.086454704 -0.25336218 -0.2739481 -0.23834841

network.2.weight f4 [84, 120]
00000000: 8da8 69be 1cba 4cbe be77 bd3e 316d 893d
00000010: 4644 293f 1866 383e f7db 8c3e f731 023f
00000020: 4e7b 4c3e b457 0d3d 5df8 9d3e 6f24 f13e
00000030: 8ea2 c2be 1ce9 b03e 01f0 ba3e 6f38 a5be
00000040: 4284 d53e 963b a63e b063 7fbf 6e9b 5c3d
00000050: 1960 833d be7e ccbd db13 ee3c 613e dfbc
00000060: cbdb db3e cccb 5c3e a1c9 a83e 4f7a 66be
00000070: 7dd4 653e f0e2 0bbf 6f2c 6e3e 07f3 4bbe
00000080: b98b dd3e 6c5d 9b3e 8c94 e4bb 23dc 913e
00000090: df39 203f f17d e83e 02f4 d33e ef14 763f
000000a0: 0149 04be 8fdc 57be 8b7e 2abf 120b 03bf
000000b0: 7226 853f ab77 ab3e 5b5d e13e fb40 933e
000000c0: 4906 c73e f497 b93e e844 5f3e c552 ff3e
000000d0: e765 9b3e 17dc 09bf 2695 e33e f237 903e
000000e0: b343 803f 734f 893d b570 773e e491 743e
000000f0: 6507 b03e 1285 10bf f704 cc3e e27e aa3e
00000100: 9b93 0fbf fc72 03bf 684f fe3e c770 8b3f
00000110: d091 b5be eeec 0a3f 78a1 9fbd b6bc bf3e
00000120: cdba 31bf 9b01 f73e 6a51 6abe dd0a cbbd
00000130: 8895 9a3d ee3a 803d 3e63 073f c509 783d
00000140: 9bb7 813e fcf9 acbe c80d 8b3f a375 e73e
00000150: b81e f63e 4226 2e3f 34cc a33e 6305 333c
00000160: c847 0b3f c82a 123e fb62 aa3e bf6d f1be
00000170: a33e 043f 5105 423e a1de 233e bebb ae3e
00000180: 5e7f 8d3e 8aab 043f 0794 a03e 131a 0b3f
00000190: 44c9 b83e b08e 913f 90f3 aa3e 9ae6 28ba
000001a0: e760 f13e 5aee 9a3e 42f0 5ebe f55d c6be
000001b0: f937 af3c 902a c33e b4fc ac3e 78fa 8c3d
000001c0: 04f6 033f fbe6 66bf 2131 e13e 34c1 703e
000001d0: 710f 1dbf fd7a c3bc 0263 653f 908f 1a3e
000001e0: dfdd 28c0 6b53 033f a0bd 89be 0225 b63e
000001f0: 90bf 603e 8d30 2a3e d785 5a3e 7a2d febd
00000200: fab0 3e3e eda0 bd3e e577 993e a40d 1e3d
00000210: 4749 703f 94b6 9c3e 6c95 643e 1109 6e3f
00000220: eaae d33c 3df8 1e3e 77bb e63e 529c 9d3e
00000230: d890 a83e 1913 343f 3153 753e 3c94 e63d
00000240: 424c cabd 5e84 e3be 3e04 bb3d 57f6 3e3f
00000250: 9393 94be e2af f3bd d9a4 9c3e 0905 403e
00000260: 52bf 23be 16bf a83e d5e7 e03b c8d0 813e
00000270: 3028 a6be 4a89 fabc d0a0 73be 069d 93be
00000280: a7a5 cbbd 1c85 053f 8386 cd3e d085 493f
00000290: e78c afbe 8b98 1e3e 15e9 b4bf 8cd5 87bd
000002a0: 9824 af3c 187c 393e d8d2 b3be 107c 7fbd
000002b0: 4df1 163d 6ca2 753f eeef 12bf 744c a7be
000002c0: 61f2 28bf 4c90 d73d db31 363e b9ff f1be
000002d0: 3320 0b3e e3d2 333f 73e7 73be 87ce 12bf
000002e0: f366 633f 9e5d 973e e1c6 5cbd 9822 08bf
000002f0: 99d3 393f b296 40be 44fe 5b3e 5b6d 473e
00000300: d855 383f a3d0 c73d 63c4 ff3e 40b9 583e
00000310: b73a a73e 3033 4e3d 03a9 56be 88fe 7a3e
00000320: 25c5 9a3d 4472 033f ca95 c5be 2830 b6be
00000330: 4141 82bf 0449 9c3e 3bf3 78bd 2e63 48bf
00000340: 8d4a 0ebe 59e7 6ebe 71e6 1bbf b97f 573f
00000350: 8bc6 fd3c cda3 893e 20ab 8c3e a350 5b3e
00000360: c858 04c0 13d1 ebbb 349f 373e ca57 a2bd
00000370: 088d f5bd bc0e 78be e3b1 09bf 10c2 8d3e
00000380: 0636 38be 64bb 573e 6b9f 883f 2329 2fbf
00000390: 1f4a 79bf e190 a9bd bcc8 0a3e aada 7d3e
000003a0: 3b56 283d e767 073f 84d5 ee3e bf6f 82bd
000003b0: 436b 7c3f b3dc 853e b71b 08bf 89a8 593e
000003c0: 84e2 8ebd 1bc2 6ebe 9ba5 da3e 052b 5a3d
000003d0: baf3 023f 74d0 383e b316 a03e 7031 673e
000003e0: 8d8d 27bc d07f f53d 88ac d83d a79b f33e
000003f0: 162f e5be 21dc 3f3e f472 3a3e de87 83be
-0.22818203 -0.1999287 0.3700542 0.0671028 0.661198 0.18007696 0.2751157 0.5085749
0.19968912 0.03450747 0.3085355 0.4709811 -0.38014644 0.34552848 0.36511233 -0.32269618
0.41702467 0.32467335 -0.99761486 0.053859167 0.064148135 -0.09985112 0.029062202 -0.027251424
0.42941126 0.21562117 0.3296633 -0.22507595 0.22444339 -0.54643154 0.23259138 -0.19916926
0.43270662 0.30344713 -0.006975716 0.28488263 0.62588304 0.45408586 0.413971 0.9612569
-0.12918474 -0.2108023 -0.6659934 -0.51188767 1.0402358 0.33489737 0.44016537 0.28760514
0.38871983 0.36248744 0.2180363 0.49867836 0.30351183 -0.53851455 0.4444973 0.28167683
1.002066 0.06704607 0.24164088 0.23883778 0.34380642 -0.5645305 0.39847538 0.3329993
-0.56084603 -0.5134733 0.49669957 1.0893792 -0.3546281 0.54267776 -0.077944696 0.37448663
-0.6942566 0.48243412 -0.2288262 -0.099141814 0.07548052 0.0626124 0.52885807 0.060556192
0.25335392 -0.33784473 1.0863581 0.45206937 0.48070312 0.68027127 0.31991732 0.010926577
0.54406404 0.14274132 0.3327864 -0.47154042 0.51658076 0.1894734 0.16002895 0.3412761
0.27636236 0.5182425 0.31362936 0.5433666 0.36091053 1.137167 0.33388948 -0.0006443054
0.47144243 0.30259973 -0.21771339 -0.3874356 0.021388995 0.3811841 0.33786547 0.068837106
0.51547265 -0.901962 0.43982795 0.23511201 -0.61351687 -0.023862356 0.896042 0.15093827
-2.638542 0.5129916 -0.26902485 0.3557511 0.21948075 0.16620083 0.21340118 -0.12411018
0.18622199 0.3703684 0.29974285 0.038587227 0.9386181 0.30608046 0.22322625 0.92982584
0.025840241 0.15524383 0.450649 0.30783325 0.32923007 0.7034164 0.23957516 0.11258742
-0.09877826 -0.44436926 0.091316685 0.74594635 -0.2901884 -0.11898781 0.3059452 0.18751921
-0.15990952 0.32958287 0.006863574 0.253546 -0.32452536 -0.030583043 -0.23791814 -0.28830737
-0.09943705 0.52156234 0.40141687 0.78719807 -0.34287187 0.15487878 -1.4133631 -0.06632528
0.021379754 0.18113744 -0.351218 -0.062374175 0.036851216 0.9595096 -0.57397354 -0.32675517
-0.6599484 0.10525569 0.17792456 -0.47265413 0.13586502 0.7024366 -0.2381876 -0.57346386
0.88828963 0.29563612 -0.053900603 -0.53177786 0.725885 -0.18807486 0.21483713 0.1947531
0.7200599 0.09756591 0.4995452 0.21164417 0.32661983 0.050341785 -0.2096291 0.24511158
0.075571336 0.5134623 -0.38590842 -0.35583615 -1.0176164 0.30524457 -0.060778838 -0.78276336
-0.13895626 -0.2333044 -0.608985 0.84179264 0.030978462 0.26882783 0.27474308 0.21417479
-2.0679188 -0.0071965544 0.17931825 -0.07926901 -0.1198979 -0.2422437 -0.5378706 0.2768712
-0.17989358 0.21067578 1.067365 -0.68422145 -0.97378725 -0.082795866 0.13553137 0.24790445
0.04109786 0.5289292 0.46647274 -0.0636897 0.9860117 0.26144943 -0.5316729 0.21255697
-0.06976798 -0.23316233 0.42704472 0.053263683 0.5115315 0.18048269 0.31267318 0.22577453
-0.010226619 0.11987269 0.10579783 0.4757969 -0.44762486 0.18736316 0.18207914 -0.25689596

network.2.bias f4 [84]
00000000: 3cfb 0bbe 6fa5 f73c c446 023d 000f ba3c
00000010: 2379 01bc 7de9 6bbe 7a66 8c3d a161 d1bc
00000020: c853 c4bd 3ee5 01be 3b71 a1bd 3dd3 98bd
00000030: 628d d23d 2795 00bd c83e 10be aaa3 223f
00000040: 2d93 b93d 4b6b 45bd d659 adbe 26fe 6fbb
00000050: b3c5 e33b ee6b 073d 4c51 edbd 3754 95bd
00000060: 77d7 31bd cac1 d5b9 22c7 6b3f f867 a13d
00000070: 757a 81bd 7f10 c43e beaa 44bd 548a 1c3f
00000080: 6f35 bc3d 3346 08be d5cd 203d c16d 18be
00000090: e24e a3bc 39f5 603e aef8 e9bd fa55 51be
000000a0: 8f79 d43e 3f35 c63c fe45 383d e03e 313e
000000b0: d96c 86be 14f4 033e fb4e 61bd 57f9 11be
000000c0: 5d24 4a3c 4e1b 783e 74c9 20be 49dd f13c
000000d0: 8763 2dbe 30b1 18be 9048 78be 1f5e ff3e
000000e0: b02c d83e 01fb 483f c343 bb3e 6003 12bd
000000f0: 6881 303f f4b7 c33d 1ca6 1abd 14e6 51bd
00000100: 1866 01be 042a 943c ad05 5a3f c9bb 7fbd
00000110: b453 083d cd24 94bd f082 da3e 863c 6fbe
00000120: ae4a 53bd 5780 3e3e 492d 05be 0699 f0bd
00000130: 1351 1a3f 6750 e73d ed59 3dbd 3ba6 cebc
00000140: 9348 ebbd 2460 35be 03f1 10be 1dc6 593f
-0.13670057 0.030230252 0.03180577 0.02271223 -0.007902416 -0.23038287 0.06855483 -0.025559248
-0.095862925 -0.12685105 -0.07882925 -0.074621655 0.10280873 -0.031392243 -0.14086449 0.6353098
0.09061275 -0.048198026 -0.33857602 -0.003661999 0.006951058 0.033061914 -0.11587772 -0.07291453
-0.043418374 -0.0004077091 0.9210073 0.078811586 -0.06322185 0.38293836 -0.048014395 0.6114857
0.09189879 -0.13308029 0.039258797 -0.14885618 -0.019935075 0.21968545 -0.11424385 -0.20442954
0.41498992 0.024195312 0.044988625 0.17309141 -0.2625492 0.12886077 -0.055006962 -0.14255272
0.012337771 0.24229166 -0.15701848 0.029524462 -0.16932498 -0.14911342 -0.2424643 0.49876496
0.42221594 0.78508 0.36575136 -0.03564775 0.6894746 0.09556571 -0.03775607 -0.05124481
-0.12636602 0.01808644 0.8516491 -0.062434945 0.03328295 -0.07233582 0.42678022 -0.23362932
-0.051584892 0.18603645 -0.13005556 -0.11747937 0.6027996 0.112946324 -0.046228338 -0.02522575
-0.11488452 -0.17712456 -0.14154439 0.8506792

network.4.weight f4 [4, 84]
00000000: 798b 06bf c4de 6e3f 9303 30bf 7e75 23bf
00000010: 3b44 05bf 52b2 94bf a605 d5be 1ffd 18bf
00000020: 5df9 12bf 9e7d a3bf f2e3 083d 5795 9ebf
00000030: 29a1 77be c8e2 cfbe f1aa fdbe b227 1a40
00000040: c308 0dbf 3b4a 0fbf 7e7b 7fbf ffa1 eebe
00000050: 0aab d1be 490d b0be 8516 0bbf 1bc9 b0be
00000060: 6d98 07bf 7be6 043d 46a0 953f 633b 33bf
00000070: 6df6 08bc a965 673f b3c5 36bf c2dd 923f
00000080: cc1c 41bf 1ecb e2be b8c9 03bf 86d3 9fbf
00000090: e9bd f8be 7d33 2d3f 8597 fcbe ed08 89bf
000000a0: 46aa 803f c84c c4be 3bf3 0fbc e756 223f
000000b0: 4c37 c7be 801f 00bf 4dc9 f1be 5e0a ebbe
000000c0: 8a09 0bbf ac86 c53f dbbd 0abf d739 eb3c
000000d0: 141b 6cbf 459c eebe 3253 ffbe 893a 7c3f
000000e0: e36a 223f 4abd a03f 8973 3a3f d9b6 1dbf
000000f0: 893e 763f ed05 38bf a45f fabe d975 cabe
00000100: bb93 46bd f68d 0dbf 7144 843f c728 ecbe
00000110: a7ed 4dbf 9403 f1bc 1beb 8e3f 5331 2b3f
00000120: 1633 12bf 8cdb 9f3f ce11 063e 2a95 01bf
00000130: 9541 883f 2705 80be a832 c9bd 7e78 acbd
00000140: 71f1 40bf 2272 fbbe d37c 0abf 146e 943f
00000150: 98fd 04bf c8f8 373f c9ab 2abf 8d68 23bf
00000160: f607 26bf 3260 91bf 729e 03bf e1c8 1abf
00000170: b513 89be 465a 7abf b0d3 f0bc 37a2 8abf
00000180: ecb0 4bbe 2362 d7be 0de0 f2be 3538 1040
00000190: 96b4 bdbe 5230 fbbe 8e32 c0bf 7d70 03bf
000001a0: e889 09bf 5d94 e4be baf3 b9be e2b8 eebe
000001b0: 1af2 e0be 775b 223d b878 793f 9883 09bf
000001c0: 2f0d 26bd db4c 903f 2109 2dbf fce6 5d3f
000001d0: 53c7 83bf 9556 13bf 07c1 e5be e6cf 4abf
000001e0: 60cd 0abf c91d 293f 2fd7 1bbf e36f a6bf
000001f0: 3b8c 913f 87c4 a4be d678 64bd 66c3 7f3f
00000200: 3035 c2be cabe 0ebf 4045 ffbe e7c7 0dbf
00000210: c033 24bf d10d a23f 6f3d 0dbf 4719 943d
00000220: ccc4 08bf 297c c2be f62f f6be 798d a53f
00000230: aa64 8a3f 2a66 983f a237 303f 1910 19bf
00000240: 3648 143f 6dff 18bf e200 0bbf 7fd4 18bf
00000250: f522 843d 6e80 0cbf 42f6 953f 6174 febe
00000260: 3916 e2be 3c74 a93c 28a7 763f 77cc 383f
00000270: e488 c2be 7dc7 ba3f 38e0 b73c ee22 0abf
00000280: aed3 8c3f 6953 07bf b28a 783c 7dba 75bd
00000290: a0a2 9dbe d13a e6be f288 09bf 6d99 9b3f
000002a0: 2e5b ffbe 0854 323f b3c2 eebe 61de 0abf
000002b0: 1fbb 11bf 7d6b 2bbf 11d3 1fbf 06d8 13bf
000002c0: ea1c 2dbf 0ea3 7bbf fa2c a33d 4ade 26bf
000002d0: 59f6 a43e a0bb 12bf e5f2 1abf 0198 0e40
000002e0: 28f0 34bf ec4a 1ebf e185 82bf 6528 3bbf
000002f0: 8eda 14bf 72cc 23bf 7d3d b0be c6fa 17bf
00000300: d35f 8abe e07b b03d 8dbf 893f b78f 43bf
00000310: 653c 773d bd00 8f3f 76ae eebe c27d 323f
00000320: 2626 d9be ae04 e0be d643 4dbf 4912 55bf
00000330: 9b95 13bf f168 583f 2d44 b8be abaa 40bf
00000340: db88 033f a674 46bf 23c1 c93d 667e 383f
00000350: c30f 49bf d011 4dbf 6b4d e6be c472 d3be
00000360: 7058 2abf 92f9 803f 4d7a c8be 55b9 9e3d
00000370: 231b f1bc dd04 d5be d411 27bf e61f 9b3f
00000380: 7fcd 373f b300 963f 57f6 273f 86c8 1cbf
00000390: ff70 863f e39a 84bf 6763 1dbf b033 0abf
000003a0: 3b0e 5a3f 09fd 32bf 1fb2 8e3f 7172 f6be
000003b0: 53b8 14bf c2ff 183d 7b05 9e3f dac6 a13f
000003c0: a60c 02bf 5cbc 423f 16f7 603d 52c5 fcbe
000003d0: 13fb 933f 6b63 b73e a426 b8bd 059e 4b3d
000003e0: 1be9 edbe a290 09bf f796 9dbe 5bec 8d3f
000003f0: d2d7 07bf 86e5 943f aa0c dfbe 7d62 e4be
-0.5255657 0.93308663 -0.68755454 -0.63851154 -0.52057236 -1.1616919 -0.41605872 -0.5976123
-0.5741175 -1.277271 0.03342051 -1.2389325 -0.24182571 -0.40602708 -0.4954448 2.4086728
-0.55091494 -0.5597264 -0.9979781 -0.46607968 -0.40950805 -0.34385136 -0.5433124 -0.3452843
-0.5296696 0.032446366 1.1689537 -0.7001249 -0.008359534 0.90389496 -0.71395415 1.1473925
-0.75434566 -0.4429559 -0.51479673 -1.2486427 -0.4858239 0.6765669 -0.4933435 -1.0705849
1.0051963 -0.3833983 -0.008786018 0.6341385 -0.38909376 -0.50048065 -0.47223893 -0.45906347
-0.5431143 1.5431724 -0.54195946 0.028714104 -0.9222882 -0.466036 -0.4986816 0.9852682
0.63444346 1.2557766 0.7283254 -0.6160713 0.9618917 -0.7188404 -0.48901093 -0.39543036
-0.04848073 -0.5529474 1.0333387 -0.4612486 -0.80440754 -0.029420651 1.1165498 0.6687214
-0.571092 1.2488875 0.1309273 -0.5061823 1.0645014 -0.2500393 -0.09824115 -0.084214196
-0.7536841 -0.49110514 -0.54096717 1.1596093 -0.51949453 0.71863985 -0.66668373 -0.63831407
-0.648559 -1.1357481 -0.51413643 -0.60462767 -0.26772848 -0.97793996 -0.029397815 -1.0830754
-0.19891709 -0.4206706 -0.47436562 2.2534306 -0.3705184 -0.49060303 -1.5015428 -0.5134352
-0.53726053 -0.44644442 -0.3631876 -0.4662543 -0.4393471 0.03963801 0.9744983 -0.5371642
-0.040539917 1.1273454 -0.67592055 0.8668058 -1.0295204 -0.5755399 -0.4487383 -0.7922348
-0.5421963 0.66061074 -0.6087522 -1.3002895 1.137092 -0.32181188 -0.0557793 0.9990753
-0.37931204 -0.5575987 -0.4985752 -0.5538315 -0.64141464 1.2660466 -0.55171865 0.07231384
-0.5342529 -0.37985352 -0.48083466 1.2933799 1.081197 1.1906178 0.6883489 -0.5979019
0.57922685 -0.5976475 -0.5429822 -0.59699243 0.0645198 -0.5488347 1.1715777 -0.49698165
-0.4415758 0.020685308 0.9634881 0.7218699 -0.37995064 1.4592129 0.022445783 -0.5395955
1.10021 -0.5286165 0.015169786 -0.059992302 -0.30788136 -0.44966748 -0.53724587 1.2156197
-0.49874252 0.6965947 -0.4663292 -0.54245573 -0.5692615 -0.6696089 -0.62431437 -0.577515
-0.67622244 -0.98295677 0.07967563 -0.65182936 0.32219198 -0.57317543 -0.6052688 2.2280276
-0.7067895 -0.6183307 -1.0197107 -0.7310851 -0.5814599 -0.63983834 -0.34421912 -0.59367025
-0.27026233 0.08617377 1.0761582 -0.76391166 0.06036033 1.11721 -0.46617478 0.6972314
-0.42411917 -0.4375357 -0.80181634 -0.83231026 -0.57650155 0.8453513 -0.35989514 -0.7526042
0.513807 -0.7752174 0.09851291 0.7206787 -0.78539675 -0.80105305 -0.4498094 -0.41298497
-0.66541195 1.0076163 -0.39155808 0.07750193 -0.029431885 -0.41605273 -0.6526158 1.211911
0.7179794 1.1718963 0.6561026 -0.61243474 1.0503234 -1.0359768 -0.614798 -0.5398512
0.85177964 -0.6991735 1.1148108 -0.48134187 -0.58093756 0.037353285 1.2345423 1.263881
-0.5080055 0.76068664 0.05492314 -0.49369293 1.1560997 0.35818037 -0.08991745 0.049711246
-0.46466908 -0.5373632 -0.3077924 1.1087755 -0.5306369 1.1632545 -0.4356435 -0.4460639

network.4.bias f4 [4]
00000000: a798 3a3e 0090 4f3d b9f2 4d3e fc06 8d3e
0.18222295 0.05067444 0.20112123 0.2754439
